models/cyber_nn.pth (torch, 49234 bytes, 6 tensors)

fc1.weight f4 [128, 24]
00000000: fe27 49be 6619 1ebe d61c 363e 44b8 20be
00000010: 3048 c83d b3b4 6bbe 0517 2bbe 9b7e 023e
00000020: 0258 acbd 5af2 0a3d 9bba c0bd 6c35 8a3c
00000030: fc64 20bd 3472 59b9 3106 1d3e 2bba 513d
00000040: 6e40 583e f9f9 b33d 875e 4bbe 9506 0e3d
00000050: 307e 00bc 63ba 3fbe a47c 2ebd 0961 a3bc
00000060: ad95 3a3e 3df3 19bd fb54 3fbe 5ac1 2b3d
00000070: 0894 fd3c f444 0b3e 89e4 04be 2c5b a03d
00000080: 8846 e4bd 097c 003e 7a3a 12be c60e 0c3d
00000090: 1ae6 d6bd f999 26be 2595 ef3d 96b9 6ebe
000000a0: 9889 42be 5610 46be bd42 d03d 0171 263e
000000b0: 3457 aa3d 93a5 45be 3805 19be b0c7 b43d
000000c0: b4c1 34be dab0 14be 984b 04bb 598b 2cbd
000000d0: 74b0 3bbe 1bb4 2c3d 1190 0abe 75e9 1d3e
000000e0: 66da b53c 52ae 203e 7e23 2d3e 9e94 81be
000000f0: ec7e ef3d d04c 043e e9c8 5ebd ad25 1cbe
00000100: ba8d 2cbe 152d 333e 2ac8 1bbe b443 343e
00000110: 9006 68bd a840 4b3d c424 f3bd cc1c 86bd
00000120: 95fd 183d 1038 99bd 12fe 1a3e 1af7 b8bd
00000130: c487 f7bd 8402 f7bd f6ad 153e 5506 5ebd
00000140: 2953 6f3e 2e3b 5dbe 804a e03b 932e f6bd
00000150: 407e f33d 60a6 22bd fa47 debd 26c8 5a3d
00000160: dc54 f7bd 9d27 cb3b 7d52 b6bd 9ba8 fe3c
00000170: a08e 50be 1928 29be 8c00 0c3d 9a16 6fbe
00000180: 76aa b53d f340 28be f878 d2bd 418f babd
00000190: 0a15 e33d 8391 0a3e 5af0 3a3e 84b5 59be
000001a0: 192f 52be 6a02 333e fdde 14be ef3c 2f3e
000001b0: d466 9a3d f7ac 8fbd d28a 033e 9666 6cbe
000001c0: 6eca 0f3e f4fa e23d 8553 e53d 18bb 5dbe
000001d0: bb60 4abe e00c 5cbc 52ea 3e3e bd8f 8c3d
000001e0: 69a0 613e 4f24 82bd 2e1a 5cbe a204 3bbe
000001f0: 7892 413e 9b31 163e 5b6d d13c 7797 cbbd
00000200: 6cd6 0d3e 5dd9 76be 68e4 9bbd 83ad f2bc
00000210: 8447 033d 7c65 373d 023b 23be c498 8a3d
00000220: ad0b 3fbd 08ac 5bbe 71b2 823d 1754 093e
00000230: 9c7f 38be 0551 d8bd 402a 0b3e 9935 df3d
00000240: c4fd b4bd 44f4 9fbd 2e37 cabd 9838 b9bd
00000250: 5245 d13d a304 563e 8fdb 64bc 4150 173e
00000260: f978 633d dcae 0b3e dcba 8abd fd41 1ebe
00000270: afeb 11be c328 45bd b6dd 57be bfb8 f83c
00000280: 2c9d babd 2286 3f3b 53dc 0bbe 9156 063e
00000290: ae32 fa3d 9cfa a53d 1813 4b3d 46d7 883d
000002a0: 0e22 513e c691 0abe 5fdc 3dbe a629 e23d
000002b0: e1af 03be 5e27 3a3e c97f 023d fbad 67be
000002c0: b3ed f1bc dc6b eb3d 02dc 433e 0221 373e
000002d0: b804 f13d 6573 b2bd 389c 3d3d 971f 593e
000002e0: fca9 57be 8ab3 93bd 01b1 bc3d fe03 183e
000002f0: bcb8 a53d 4ee9 e8bd 6851 bb3c e5c4 39be
00000300: c96b 083c 879d d1bd bb21 253e d7b8 1f3e
00000310: 28c5 473d efdb 10be 0ca5 34be 3456 3bbe
00000320: 43fc 1abd f578 25be def0 0fbe ef7b 473e
00000330: 40d5 3c3e c998 6fbd 309d 513d 8a7e fb3d
00000340: 131c db3d 73ce 883c 1023 163e 1398 c9bd
00000350: 83ad 6e3d 6ee4 3fbe c173 1fbe 1668 fd3d
00000360: f004 8dbd 62cb e53d 5072 82bd 5be1 9b3d
00000370: 024a e2bd 27b9 b73c edc4 823e 8025 08bd
00000380: 1df5 69be 82bc e73d 1c4e 993d 2f29 853e
00000390: 74dc 1c3d 5c96 e5bc 47a0 e8bd b538 19bc
000003a0: 4174 36be 9c69 c1bd 909c 1f3d c762 eebd
000003b0: f257 a1bd f0c4 bf3d e806 ec3d 3512 2dbe
000003c0: 66c3 25bd 74bd 0d3e 652c 82bd 084e 063e
000003d0: 375e d9bd 972a 07be 212b 9bbb d2d6 4bbe
000003e0: de13 cb3c 6965 4ebe 5813 b73d f14f 123e
000003f0: 94e3 07bd 2132 6cbe 7e6c 4bbc 993b 27be
-0.19644162 -0.15439376 0.17784438 -0.15695292 0.09779394 -0.2301815 -0.16708 0.12743609
-0.08415224 0.03392253 -0.09410592 0.016871177 -0.039158806 -0.00020737277 0.15334393 0.051202934
0.21118328 0.08787913 -0.19860278 0.034674246 -0.007842585 -0.18723445 -0.042599335 -0.01994373
0.1822116 -0.037585486 -0.18684761 0.04193244 0.030954376 0.13600522 -0.12977804 0.0782989
-0.11146265 0.12547316 -0.1428012 0.034193777 -0.10493107 -0.16269673 0.11698369 -0.23312983
-0.189978 -0.19342169 0.10168979 0.16254045 0.08317414 -0.19301443 -0.14943397 0.0882715
-0.17652017 -0.14520589 -0.002018666 -0.04212508 -0.1832903 0.04216395 -0.1353152 0.15421088
0.022198867 0.15691498 0.1690807 -0.25308698 0.1169413 0.12919927 -0.05439082 -0.15248747
-0.1685094 0.17497666 -0.15213075 0.17603952 -0.056646883 0.049622208 -0.11872247 -0.06548461
0.03735121 -0.07481396 0.15135983 -0.09031506 -0.12086442 -0.12061027 0.14617142 -0.054205257
0.23371567 -0.21604607 0.0068448186 -0.12020602 0.11889315 -0.03970945 -0.10853572 0.053413533
-0.120767325 0.0061997906 -0.08902452 0.031086257 -0.20366907 -0.16519202 0.03418021 -0.23348466
0.088704035 -0.16431026 -0.10276979 -0.09109355 0.11087997 0.13532071 0.1825575 -0.21260649
-0.20525779 0.1748139 -0.14538188 0.17113088 0.07539144 -0.07015412 0.12845924 -0.23086008
0.14042065 0.11083022 0.11197571 -0.21653402 -0.19763462 -0.013430804 0.18644074 0.068633534
0.22033848 -0.063545816 -0.21494362 -0.18263486 0.1890353 0.1466736 0.02556484 -0.09940999
0.13851327 -0.24106355 -0.076119244 -0.029623752 0.032050624 0.044774517 -0.15940478 0.06767419
-0.046641994 -0.21452343 0.06381691 0.13410984 -0.18017429 -0.10562328 0.13590336 0.10898895
-0.088374645 -0.07810262 -0.09873806 -0.090439975 0.102183 0.20900206 -0.0139683625 0.14776708
0.05553529 0.13640922 -0.06773922 -0.1545486 -0.14250062 -0.048134577 -0.2108067 0.030361531
-0.091120094 0.0029224236 -0.13658266 0.1311896 0.12216698 0.081044406 0.049578756 0.06681685
0.20423147 -0.1353217 -0.18541096 0.110431 -0.12860061 0.1817908 0.031860147 -0.22624962
-0.02953229 0.11495182 0.19126895 0.17883685 0.11768478 -0.08713416 0.04629156 0.21203457
-0.21060938 -0.07211979 0.09213448 0.14845273 0.08091876 -0.11372624 0.022865966 -0.18141516
0.008326479 -0.10235124 0.16126148 0.15597855 0.048772007 -0.14146398 -0.17641085 -0.18294603
-0.03783823 -0.16159423 -0.14056727 0.1948087 0.18440723 -0.058495317 0.051175296 0.12279995
0.10698714 0.016700005 0.14661813 -0.09843459 0.058270942 -0.18739483 -0.155715 0.123733684
-0.068857074 0.11220433 -0.0636946 0.076113425 -0.11049272 0.022427155 0.25540867 -0.033238888
-0.2284741 0.11315252 0.07485601 0.26007983 0.038296178 -0.028025798 -0.113586955 -0.009351899
-0.17817785 -0.094439715 0.03896767 -0.11639934 -0.07878102 0.09363735 0.11524755 -0.16901477
-0.04046955 0.13841802 -0.06356124 0.13115704 -0.10613673 -0.1319984 -0.004735366 -0.19906166
0.024789747 -0.20155872 0.089392364 0.14288308 -0.03317602 -0.23065998 -0.012416003 -0.16331328

fc1.bias f4 [128]
00000000: 5669 37be 1a55 08be bef9 a5bd 6d69 8dbd
00000010: b111 14be 0992 d63d f985 113e f86b e83d
00000020: 3011 57bd cb5c 013e e858 af3d d3e3 f6bd
00000030: 70c0 6abd 78e7 1ebc 8224 ab3c ea2b 1d3e
00000040: c4ea 2ebc b7f5 bdbb 8912 0bbe afce 533d
00000050: 7fe9 683d bdff db3c 2688 533e bc86 a13d
00000060: 480e 66bc 920f ef3d be0c 473d 4427 5e3d
00000070: b84d 23bd ce39 70be 7c42 253d f024 693e
00000080: 1098 1b3e 238f 1f3e fe6f 03be 8046 12be
00000090: 6653 633e 8d6d 61bc abbb 73bd 7c44 523e
000000a0: ed32 a13d 3d53 3cbe f22d b4bd 4891 043e
000000b0: 5df4 2e3e b5e6 7a3e 8ada 13be 2742 55be
000000c0: 78bc 8a3d e695 533e bd5b 2d3d 816a 473e
000000d0: 2724 d8bd c828 3ebd 0485 b13d 479e 9ebd
000000e0: c71c 11be 90c7 b4bd 15f1 1cbd c195 743d
000000f0: 16e4 e23c b59b e7bd 7a0d 153d c7b7 29be
00000100: e81f 58bd 133c b83d 4e4e cebd 57c8 2e3d
00000110: 9410 df3d 365d 013e 9224 21be 32fd 2f3e
00000120: 1698 ed3d cf85 9dbc 9775 ad3d 0347 513e
00000130: a6a9 073e 11b7 36bd 4a46 173e 38e5 ac3d
00000140: fb04 afbd 26b9 22be d209 753d 799c 6ebd
00000150: e4a2 d0bc 10de 0abe 565d 743c 65c8 29be
00000160: 48ab 403e c52e 2f3e 4e26 98bd 3470 a7bd
00000170: f08d 573d 4a5e 0bba 6848 9e3c 3816 523e
00000180: 5c46 f0bb f0fe d13d 9763 bcbd fe96 bc3d
00000190: 04ef 5f3d 4678 b2bd 3f72 18be 6f5e a3bd
000001a0: 5ea8 b4bd 6226 11be e0e1 373d 2830 6abd
000001b0: 0df1 343d 8b75 333e 74eb 04be 4ede 903d
000001c0: dbc2 c73c d232 30be f836 10be 4bb1 11be
000001d0: 962f 41be 0036 783d 6c6c 94bd 9bda 343e
000001e0: 34b2 253e f5fd 5abe 0ba7 203e 4c70 cfbd
000001f0: 3a21 e73d c9e6 f8bd de6c 1bbe 0f4e 0d3e
-0.17911276 -0.13313714 -0.08104275 -0.06904874 -0.14459874 0.10477073 0.14211263 0.113487184
-0.052506626 0.12633054 0.085618794 -0.12055173 -0.05731243 -0.009698741 0.020891432 0.15348783
-0.01067609 -0.0057971138 -0.1358129 0.05171078 0.056863304 0.026855344 0.20657405 0.07887027
-0.014041491 0.11672892 0.048596136 0.054236665 -0.03986904 -0.2345955 0.040346608 0.22767997
0.15194726 0.15581946 -0.1283569 -0.14284706 0.22199783 -0.013759029 -0.059505146 0.20533937
0.078710414 -0.18391128 -0.08797826 0.12946045 0.17085405 0.2450207 -0.14438835 -0.20826016
0.06774229 0.2066265 0.042323817 0.19474222 -0.105537705 -0.04642561 0.08667949 -0.07745033
-0.14171134 -0.08827126 -0.03831585 0.05971313 0.02769665 -0.11308996 0.036389805 -0.16574012
-0.052764803 0.08995833 -0.10073529 0.042671528 0.10891834 0.12633213 -0.15736607 0.1718643
0.11601274 -0.019228844 0.08469694 0.20437245 0.1324831 -0.04460818 0.14772907 0.084421575
-0.08545872 -0.15890941 0.05982382 -0.058254693 -0.025468297 -0.13561273 0.014914831 -0.1658035
0.18815339 0.17107685 -0.07429181 -0.08175698 0.052625597 -0.00053164794 0.019321635 0.20516288
-0.0073326062 0.102537036 -0.09198683 0.09208487 0.054671302 -0.087143466 -0.14887331 -0.07976996
-0.08821176 -0.14174798 0.044893146 -0.05717483 0.044175196 0.17525308 -0.12980443 0.07073651
0.024384907 -0.17206886 -0.14083469 -0.14227788 -0.18865809 0.060598373 -0.07247242 0.17661516
0.1618126 -0.2138594 0.15688722 -0.10128841 0.11285634 -0.12153394 -0.15178248 0.13799308

fc2.weight f4 [64, 128]
00000000: d24f acbd 922c b83d cdc0 c1bd 0fd9 24bd
00000010: 1f27 06be 4148 9ebc 1d43 34bc e3e7 b53d
00000020: 28b7 0abe 1a1d b4bd 4f9b 8cbc 4b23 eb3c
00000030: f3b6 b83c c6bb d8bc f558 b03d 3535 663d
00000040: b924 f0bd 7b3a 89bc 2ec3 29bd 3423 7ebd
00000050: 9ab1 85bc f4d0 f4bd 5aee 573d 9e93 e53d
00000060: e98e d5bc 1e38 7c3c 51a4 2bbc c418 fb3c
00000070: c9d6 533d 93c0 efbb a3fc 9b3d 9358 a4bc
00000080: a49c 9bbd 2507 e9bb 7653 5b3b 363f d43d
00000090: 7f8b d93c fa56 9dbd b412 d1bb 76cf 9cbd
000000a0: d40a 513d 4d21 52bd 1112 8d3b 0d99 2dbd
000000b0: bace f6bd 82c2 fb3b 084d 5dbc e2e7 9b3c
000000c0: a509 abbb 1702 823c 1acc a23c bc59 9cbd
000000d0: 205e d83d c423 72bc bda4 8e3d 10ff e4bd
000000e0: 780d e0bd 87ca a33d f8f0 363d c282 8dbd
000000f0: 2a6b b23c 4eab 6f3d 2e32 c63c 1a23 02bd
00000100: 6e2c eabd f1fc a8bc c130 afbd cc94 543d
00000110: 609e ef3d e07a 9cbd 894a 10bc e160 413d
00000120: 0d19 713d 763b f93d 4ea1 643d 1dd0 85bd
00000130: f830 97bb fef9 5d3d af29 ef3c 2e4b 733c
00000140: f69e bd3c 5b85 a3bc e952 1f3d 7430 ef3b
00000150: 0e69 4abd 64f8 1f3d e7dc ef3b a9cc b5bc
00000160: 69c6 a43c 8b1f 4dbd 9271 4fbd f662 22bc
00000170: 4c92 40bd a52c a33d 0ce8 29bd 96a3 c43b
00000180: 4208 bb3c ffc2 ab3d 1aae 43bd 3a6a b93c
00000190: baa1 953c 5057 b0bd 21f8 dabd aae5 4ebd
000001a0: ffb7 6abc e02a 12bc 5e91 ab3c 5168 3b3d
000001b0: e3e2 cbbc 94ed 61bd 4621 c73d 5de2 3dbd
000001c0: b99d 5b3d 3342 823d b738 e0bd 7063 a53d
000001d0: 6f56 ee3d d5c3 903a 3c48 1d3d c5b2 88b9
000001e0: ae75 34bd 8d73 aabc 6f9c 9e3d d267 33bd
000001f0: 4670 c9bd 16e8 ebbc c626 eb3d 9c32 fbba
00000200: 5cf4 b4b9 3411 b43d fbb5 3bbb 3634 f1bc
00000210: e8af 973d c8d5 f1bd dbfb 90bd b121 fa3b
00000220: a06f 653d 43a1 61bd 25ba df3b b2ca 0cbe
00000230: 3855 133d 1d56 15bd 0ba5 fe3d 0c1c f23d
00000240: 5edf 88bc a9f2 df3d d6c6 aebd 9c88 cfbb
00000250: 45dc 87bd a29a d2bb 46db ddbc 8a50 0a3d
00000260: 89ef f2bd 42f5 07be 8a8d 4dbd 31bc 5abd
00000270: 912d d43c 7fc5 953d 894f 393d 6269 c73c
00000280: 3a44 2c3d 70a5 b7bd 0e8f a43d 7cb2 ee3d
00000290: ca35 7d3d 5d6b 6abc 5655 89bc 9550 1d3d
000002a0: 42b2 96bd 6318 6dbd a705 c43d 96ee 3fbd
000002b0: e76a 013e a284 d0bd b7af 4dbd 2cc6 32bd
000002c0: 2f68 923c 2236 a1bd b71f 803c f1fb dabc
000002d0: 2a59 043c 885f 2dbd e375 013d 81c9 b6bd
000002e0: 6ebc aabd fbfc 8c3a 48d8 7a3d e7a1 993d
000002f0: ec11 923d d484 58bb 58ab 113d 528b 4a3d
00000300: 941c b93d 875e 9dbc c41e 393d d097 91bc
00000310: 7cf9 ad3d 248c a13d 9a41 af3c 0370 2f3c
00000320: 2f24 6bbd 4661 a23c c7b8 90bd 5a1c e2bb
00000330: eba9 a3bc cfa1 d1bd 1205 273d 0202 8b3a
00000340: 459c dbbd 24ec 013e ea44 bc3d 0248 fabd
00000350: 8dc2 1ebd af8c dd3b 3875 f03c 44cc 3dbb
00000360: 280f fe3c a046 09bd acb8 5d3d 739e 00bd
00000370: 3616 193c d72a 99bb 6c03 d73d d1e0 813d
00000380: 5fc6 403d 1a6e d93d 4f34 b3bd dde3 99bd
00000390: 96bd 653d 1ade 043d 67b3 c1bd fd96 ccbd
000003a0: 5dc2 ac3d ef02 2e3d 56d2 85bc 5674 1fbd
000003b0: 5470 c63c 6943 94bc 4861 63bd c4ad c53d
000003c0: 5ba7 9cbd 39ac 913d 9e91 6ebd 48ca 163d
000003d0: b4a8 babd e66f de3c 52ec 6abd b847 93bd
000003e0: d5b4 873c 43c2 2fbd 3233 c53c 4290 02bd
000003f0: 8790 8dbd fea8 91bc f9bd 0e3e b8b5 7bbc
-0.08413662 0.08992876 -0.09460602 -0.040246066 -0.13100861 -0.019321563 -0.011002329 0.088821195
-0.13546431 -0.08794613 -0.0171639 0.028703352 0.022548174 -0.026456725 0.08610717 0.056203086
-0.11725754 -0.016751518 -0.041445903 -0.06204529 -0.016320039 -0.11953917 0.052717544 0.11209796
-0.026069121 0.015394239 -0.010476188 0.030651458 0.051718507 -0.007316658 0.07616546 -0.020061767
-0.07598236 -0.0071114474 0.0033466495 0.10363619 0.026555775 -0.07682605 -0.0063804034 -0.076567575
0.051035717 -0.05130129 0.004305132 -0.04238229 -0.12051149 0.0076830992 -0.013507135 0.019031469
-0.0052196556 0.015870137 0.019872714 -0.07634303 0.10564828 -0.014779035 0.06965015 -0.11181462
-0.10940069 0.079976134 0.0446634 -0.06909706 0.021779615 0.05851298 0.02419385 -0.031771757
-0.114342555 -0.020628424 -0.08554221 0.051899716 0.117001295 -0.07640624 -0.008806833 0.04721153
0.05886178 0.121695444 0.055817895 -0.06533835 -0.004613992 0.05419349 0.029194681 0.014849467
0.023147088 -0.01996105 0.03889743 0.0072994772 -0.049416594 0.039055243 0.007320035 -0.022192316
0.02011414 -0.05007891 -0.05064542 -0.009911289 -0.04701452 0.079675 -0.041481063 0.0060009463
0.022831086 0.08386802 -0.047773458 0.02263366 0.018265594 -0.086104035 -0.10691858 -0.050511993
-0.014326095 -0.008921355 0.02094334 0.04575378 -0.024888461 -0.055158213 0.09723143 -0.046358455
0.053617213 0.06360283 -0.109483175 0.08075607 0.1163758 0.0011044691 0.038398966 -0.00026073135
-0.04405754 -0.020807052 0.07744681 -0.043800183 -0.098358676 -0.02879719 0.11482005 -0.0019164863
-0.00034514337 0.08792344 -0.0028642404 -0.029443841 0.07406598 -0.11808354 -0.070792876 0.007633411
0.056014657 -0.05508543 0.00682761 -0.13749197 0.035969943 -0.036459077 0.12433823 0.11821756
-0.016708072 0.109349556 -0.08534019 -0.006333424 -0.0663381 -0.006427125 -0.027082097 0.033768214
-0.11862094 -0.13277152 -0.05018381 -0.05340213 0.025900634 0.0731306 0.045241866 0.024342243
0.042057253 -0.089671016 0.08035098 0.11655137 0.061818875 -0.014307824 -0.016764324 0.038406927
-0.07358219 -0.057884585 0.095713906 -0.046858393 0.12638436 -0.10181548 -0.050216403 -0.043646023
0.017871944 -0.07871653 0.015640123 -0.026731463 0.008077899 -0.042327434 0.031606566 -0.089251526
-0.08336721 0.0010756546 0.061241418 0.075015835 0.071323246 -0.0033038156 0.035563797 0.049449272
0.09038654 -0.019210113 0.045195356 -0.017772585 0.08494851 0.07888058 0.021393586 0.010707858
-0.057407554 0.019821774 -0.070664935 -0.0069003524 -0.019978484 -0.10235941 0.04077632 0.0010605457
-0.107231654 0.12687737 0.09192832 -0.12220766 -0.038759757 0.0067611556 0.02935277 -0.0028960863
0.031013086 -0.03351462 0.054131195 -0.03140111 0.009343674 -0.0046742964 0.104986995 0.063417085
0.04706418 0.10616703 -0.087502114 -0.075141646 0.056089006 0.032438375 -0.094580464 -0.09989736
0.08435509 0.042483266 -0.016335648 -0.038929306 0.024223484 -0.01809855 -0.055512697 0.09652284
-0.07649108 0.07112927 -0.05824434 0.036814004 -0.09114209 0.027152967 -0.05735428 -0.07191414
0.01656572 -0.04290987 0.024072263 -0.031875856 -0.06912332 -0.017780777 0.13939656 -0.015363149

fc2.bias f4 [64]
00000000: 75ce 5fbc 01cf 29bb b8cc b3bc 9d02 0a3d
00000010: 3ac4 b83d 1288 e03d bdd0 4abd f959 833d
00000020: ef27 b03d 6efa b7bc f94c 9a3d 236e b13d
00000030: 3cc4 013d ba7a 27bd a569 59bd 628a 903d
00000040: 710c 58bc c0bd 943d eb23 bdbc ed0e 64bd
00000050: b039 b7bd 6480 d43d de26 ad3d f926 633d
00000060: 65f6 c7bd aabe 1dbd 2094 e33c b726 493a
00000070: 7539 91bd e8c1 8fbd 5e97 b7ba 9623 babc
00000080: 192b 05be 9875 aebd f447 52bd d1fb a8bd
00000090: cac5 a73d 1bdf 47bd 9409 2abc 0fa0 f03b
000000a0: 1c7b 903d ac3e 683c 6bce de3c d233 c33d
000000b0: 3737 273d 175d c73d 28dd be3d daa2 ccbc
000000c0: 0fb3 3fbd 4291 b23d 7c2c b0bd 3cac 223d
000000d0: 5e45 893c 8ae9 243d 5c58 c83d ee67 413d
000000e0: 493d e83d 7db5 f2bb d7af 9d3d c02a a5bd
000000f0: ba88 9b3d 8bea 8d3c 1a3d 883d 2302 ab3d
-0.013660063 -0.0025910737 -0.021948203 0.0336939 0.09021802 0.10963453 -0.049515475 0.06413645
0.08601367 -0.022458281 0.075342126 0.08663585 0.031681284 -0.040888526 -0.053079266 0.070576444
-0.01318656 0.072627544 -0.023088416 -0.055678297 -0.0894655 0.10376051 0.08454679 0.05545709
-0.09763793 -0.03851191 0.027780592 0.00076733105 -0.07091037 -0.070194066 -0.0014006903 -0.022722047
-0.13004722 -0.08518523 -0.05133815 -0.08251155 0.08192022 -0.048796754 -0.01037826 0.007343299
0.07054731 0.014175098 0.027198037 0.09531368 0.04082414 0.09734552 0.09319526 -0.024979997
-0.046801623 0.08719112 -0.08602235 0.039715037 0.01675671 0.040261783 0.09782478 0.047218256
0.11339814 -0.007406889 0.076995544 -0.080647945 0.07594438 0.017323753 0.06652279 0.08350017

fc3.weight f4 [3, 64]
00000000: 2b10 11be ec67 083e 512c b73d 5874 81bd
00000010: de64 64bd d13c 1a3d 7b1d 033d dd00 c3bd
00000020: d50c f93d 9159 28be 98fa 2ebe 5f65 333e
00000030: f15c c5bd efcb 30bd 79db 20be 6b08 293b
00000040: ce3b d0bd a886 153e 5352 d9bd 6f88 f33d
00000050: d9f0 a13b 539a a9bd 3bb3 0bbe 2484 2d3d
00000060: 1553 b13d cfcf 763d 6bdb f43b c5a8 0fbe
00000070: e099 c8bd 6b58 9fbc 6e96 f9bd c18c c3bd
00000080: 0877 063e f217 25bd 6ba5 273e bf12 c03d
00000090: 4569 0dbe 0693 8e3d f8fb a03d 8ba9 213c
000000a0: 67a0 203e 43eb 493d a225 2e3e 2a9e ff3d
000000b0: 45c5 083e db0a 74bd 23bf d13d 006d 523d
000000c0: 0aab 07be f7df c13c 979f ed3c a6f4 11bd
000000d0: f8b6 c4bd e0db 3bbd 875a f33d 6d79 1d3e
000000e0: 18d4 633d 1af8 15bd 3890 04be 4766 253e
000000f0: f99e 0cbe bf28 34bd e4dd b0bd d909 713d
00000100: 0186 f43c 0015 d23d d2a9 a33d 19b0 7bbc
00000110: 8a33 8f3d bbb2 333e 4897 30bd 2c64 983d
00000120: 07a8 31be b048 c1bc f874 e73d 1aa7 c03d
00000130: 095e edbd 32fe 233e 06a7 13be 2c56 13be
00000140: 2a40 69bd 5d79 e6bd 82f3 503d dc91 29be
00000150: 7413 563d 10e4 283e 8aa1 ad3d 2d1e 133e
00000160: 9d56 a7bd 19d3 cebd 37b4 f8bd 1996 ef3c
00000170: 9c73 b03d a1cf 233e 1fd0 1ebe 658e 8c3d
00000180: 4cfd 03be 2142 643d 506b 2ebe 36ef 1cbe
00000190: 022f 963c 7ef4 a9bd 064e 363e 283f 203e
000001a0: 7c79 b1bd ca23 013e 18c2 84bd 9540 343e
000001b0: 073d 67bc 88a1 08be 8436 0fbe afa7 853d
000001c0: 7987 2ebe f0db 3c3d 7745 273e dd58 353e
000001d0: 09be bcbc 9507 0e3e f5bc 9c3d b0f0 f6bd
000001e0: 6d6c 733d 9d16 1e3e 9159 f13d efbb 26be
000001f0: e148 9b3d dd59 a53c 6a5d 1b3e c0e0 00be
00000200: fc9a 1dbe e7c6 b6bd ccf2 a7bd 9038 063e
00000210: 90d1 7fbd 7c57 2cbe 4803 1d3e 8652 9d3c
00000220: ffe2 ddbd 24f3 1d3e 9d60 07bd 0df6 a7bd
00000230: 441d 553d dfb0 20bd adad babb 6b51 0f3e
00000240: 8940 063e e7ac cbbd 8644 11be 3f15 263d
00000250: c9da ca3c 8fa1 ec3d 3ad6 32be 8206 5bbd
00000260: 97eb b33d 0862 6dbd 30f5 f6bd 6d38 01be
00000270: 90a9 873d 69f2 0d3e dada 643d 6259 cf3d
00000280: 84da 87bd 1b1d 09be e043 8bbd 9ff4 083e
00000290: ebe9 09bd ca14 ebbd 98a0 1cbe 01ba dabd
000002a0: 9b6a dc3d 3cfc 49bd 1ed0 fd3d 26bc edbd
000002b0: 3c11 b1bb 2512 dd3d 7543 393d c57c 10be
000002c0: 222b b53a bc29 2bbe 381b b13c 6696 243d
000002d0: 1c15 eb3d ba1c 3cbe cd28 d0bd ad4b 8bbc
000002e0: dc7b 0dbe ea0d a63d fac9 cfbd 9665 ecbd
000002f0: 9ceb 623d 6595 153e b03a 0cbe 75f9 8cbd
-0.14166324 0.13320893 0.089439996 -0.06321019 -0.055760257 0.037655655 0.032010537 -0.09521649
0.12160651 -0.16440417 -0.17087781 0.17519139 -0.09636868 -0.043163236 -0.15708722 0.002579237
-0.10167657 0.14602149 -0.10611405 0.11891257 0.0049420414 -0.08281388 -0.1364259 0.042362347
0.08658425 0.060256775 0.0074724457 -0.14029224 -0.09794974 -0.01945134 -0.12186895 -0.09548331
0.13131344 -0.04030604 0.16371696 0.093785755 -0.13809688 0.06961636 0.07860559 0.009867082
0.15686189 0.04929663 0.17006543 0.12481339 0.13356502 -0.059580665 0.102415346 0.05137348
-0.1324884 0.023666365 0.029006762 -0.035633706 -0.09605211 -0.045863986 0.11882501 0.15378352
0.05562219 -0.03661356 -0.1294564 0.16152297 -0.13732518 -0.04398417 -0.08636072 0.058847282
0.029849054 0.10257912 0.07991375 -0.015361809 0.06992252 0.17548649 -0.043113023 0.07440981
-0.17349254 -0.02359423 0.11301607 0.09406872 -0.115902014 0.16014937 -0.14419183 -0.1438834
-0.056945957 -0.11253617 0.051013477 -0.16559547 0.052264646 0.16493249 0.08478077 0.1436698
-0.08170817 -0.100988574 -0.12143748 0.029246377 0.08615801 0.15997173 -0.1550908 0.06863097
-0.12889594 0.055727128 -0.17033124 -0.15325627 0.018332962 -0.08298586 0.17803201 0.15649092
-0.086657494 0.12611309 -0.06482333 0.17602761 -0.014113671 -0.1334287 -0.1398564 0.06526124
-0.17043866 0.046108186 0.16335092 0.1770968 -0.023039835 0.1387008 0.07653228 -0.12057626
0.059429575 0.15438314 0.117846616 -0.16282628 0.0758226 0.020184452 0.15172353 -0.12585735
-0.15391153 -0.08924656 -0.08200607 0.13107514 -0.062455714 -0.16830248 0.15333283 0.01920439
-0.10834312 0.15424782 -0.033051122 -0.08201227 0.052029863 -0.039231177 -0.0056969733 0.13995902
0.13110556 -0.09945088 -0.14186296 0.040547606 0.024762528 0.11554252 -0.17464533 -0.053473003
0.087851696 -0.057954818 -0.120584846 -0.12619181 0.06624138 0.13862003 0.055872776 0.1012447
-0.066334754 -0.13390009 -0.068000555 0.13374566 -0.033670347 -0.114785746 -0.15295637 -0.10680009
0.10762521 -0.049312815 0.12393211 -0.11608152 -0.005403666 0.107944764 0.045230348 -0.14110096
0.0013822059 -0.16715139 0.021619424 0.040182494 0.11478636 -0.18370333 -0.10164032 -0.017003858
-0.1381678 0.08108123 -0.10145946 -0.115428135 0.055400476 0.1460777 -0.13694263 -0.06883518

fc3.bias f4 [3]
00000000: c17b 19bd f89e c83d 9ad8 eb3d
-0.037471537 0.09795946 0.11515923
