models/cyber_nn.pth (torch, 49234 bytes, 6 tensors)

fc1.weight f4 [128, 24]
00000000: 0f2d 173e bf1d dcbd 0c32 2b3e 0a62 83bc
00000010: 7fcf 26bd 1fff 293e 82e7 a8bd 5a12 3b3e
00000020: 38f8 5b3e b9ac c83d 6071 1d3e 1b32 a03c
00000030: b483 3cbe fc3b 7f3d b8c3 123e a61f 3bbe
00000040: dfd7 583e dcfa ae3d 67a0 d1bd b563 bdbb
00000050: 932e 203e 1a6b 3d3e 005d 06be 2ee2 413e
00000060: 8e4e 58be a32f 39be 7180 03bd 67f2 1cbe
00000070: b6a1 0c3e ef1b a3bd 62f9 323e ed15 1b3d
00000080: f747 3f3d c02b 113e 8047 7fbc e300 323e
00000090: f897 cfbc fb13 0abe 30d7 20be c005 c63d
000000a0: e5cb 21be aeba 293e f10c 323d c20d e9bd
000000b0: a23d 3c3e 3828 3dbd 087e a5bc e7c3 80bc
000000c0: a193 3e3e fb73 5e3e ab40 f23d 44cd 1abc
000000d0: c5ce 2e3e ef8d 88bd 12b9 bcbd 7107 7cbb
000000e0: 0b4e 33be 311f 0fbe 4091 4e3c 7eb7 dc3d
000000f0: d400 4f3e ff8d f2bd d32e 15be 23e6 85bd
00000100: 61e8 1c3e 12b4 af3d 9045 b83c 58ef 5fbe
00000110: f93e 153e 08c6 8a3c 786a e8bc 96c9 003e
00000120: a971 26bd b1e9 4dbe 705c b2bd a624 243e
00000130: 0502 15be e12a 35be ffe9 3dbd 0274 8bbd
00000140: 9eab 3a3e beb3 313e a43b b63d 6a8c 4e3e
00000150: 22b9 3f3e f15d ecbd 937a b63d 9ede 5bbd
00000160: c76d 5a3e c75d 4ebe 1af5 92bd a8e8 a23b
00000170: 9bd1 1e3e d87e 3cbd 4cb7 dc3d 9c76 21be
00000180: 9945 273e 6aa4 26be e5e3 c1bd 8d46 613e
00000190: 9ed4 3ebe f444 293d 9770 13be b36f 753d
000001a0: bfd5 26be efbf 903c 1421 6cbd b5bd eb3d
000001b0: ccd1 273e 0859 c53d cfc3 753d 2c0f 99bd
000001c0: d112 b8bb 3dfb 0dbe dd15 3b3e 21ed 1e3e
000001d0: 21c3 e33d f205 02be c2f5 293e 35c9 2abe
000001e0: 2a31 ca3d 25ff a7bc 066e b93d 8322 a7bb
000001f0: 2332 283e 31e5 ac3d e966 b33d fa90 24be
00000200: 3123 d93b 3392 073e 5803 013e 0043 4e3e
00000210: 14b9 42bd 1bd3 e83c e781 ec3d f9d8 913d
00000220: cded e3bd 2601 153e b4e1 2dbe db71 9abd
00000230: c9ee 2b3c 1048 943d 50a6 7b3c 93ab 2abe
00000240: a0f9 8a3d c857 efbd a128 1d3e f5ae 3dbe
00000250: e923 bf3d c0c6 5e3c e71d 233e 4485 053e
00000260: 9d66 33be 9ed8 4bbe fc78 3ebe e40d a73d
00000270: 44f3 8a3d f7a6 1fbe 7c1d 2d3e b782 92bd
00000280: 3523 acbd 446f 1f3e 876f 10be 1879 45be
00000290: 21f1 f7bd 5cf8 403e fccb fabd 256a 20be
000002a0: 2e31 43be 2b39 04bc 6caa 0b3e 311b 95bd
000002b0: 4e3a 73be 0f17 463e 3c1e 4e3e 0045 25be
000002c0: eaea 84bd ebbb aebd e4e0 b7bd 0f52 b0bd
000002d0: 78a0 593d 8bf2 9fbb 2a6e 0cbe b681 1abd
000002e0: 7e5a 28be 152a 60bd 9e6c eb3d 6ab4 293e
000002f0: 1ebb 0c3e 0e96 463e 5cc6 133d 83d3 b63d
00000300: 0af5 dbbb 4846 f8bd ca1f be3d 401d c8bd
00000310: 2947 0bbe 8576 25be e364 bd3d 6afa b6bd
00000320: 402d 663d 2ecb f73b 4c02 85bd 8b05 173e
00000330: dc78 c43d f115 9bbd 423c 74bd 5883 3ebd
00000340: 46b8 50be 7fe6 083e 2220 5d3e a625 353e
00000350: 675d fabb cc36 fc3d 2973 13be be2d cb3d
00000360: 3ea8 debd 2860 06be dfba de3d 0397 d0bd
00000370: c5f2 a0bd c66d 5c3d f51c 5fbd a410 35be
00000380: 509f dd3d 2cc9 cd3d 288d debc 71fd ff3d
00000390: 5e82 0ebe 7ad2 9fbd c1cc 9cbd 9c0f b6bc
000003a0: 1184 acbd 074a 9e3d 8c4c 83bd c59f bbbd
000003b0: e863 213d 6c61 47be 90fc e13c 00eb a23d
000003c0: b765 273d 258f 10be 39d5 3cbe e94b 563e
000003d0: 30c7 8a3d 4f9b 2d3e 2c24 a5bd b7d5 00be
000003e0: b237 efbd c978 96bd 60d6 893d 141b 5abd
000003f0: 3ca7 06bd 96f2 393d e382 f0bd 1948 263e
0.14763282 -0.10747861 0.1671831 -0.01603796 -0.040725227 0.16601227 -0.082472816 0.1826872
0.21481407 0.09798569 0.1537528 0.019555142 -0.18409616 0.062313065 0.14332473 -0.18273792
0.21176098 0.085439414 -0.102356724 -0.0057797083 0.15642767 0.18497887 -0.13121414 0.18933937
-0.21123716 -0.18084578 -0.032104913 -0.15326844 0.13733563 -0.07964312 0.17477944 0.037862707
0.04669949 0.14176846 -0.015581012 0.17383151 -0.025341019 -0.13484184 -0.15707088 0.096690655
-0.15800436 0.16575119 0.043469373 -0.11379577 0.18382886 -0.046180934 -0.020201698 -0.015718414
0.18611003 0.2172393 0.11828741 -0.009448353 0.17071064 -0.06667697 -0.09214987 -0.0038456584
-0.1751024 -0.13976742 0.0126078725 0.10777186 0.2021516 -0.1184349 -0.14568643 -0.06538036
0.1532302 0.085792676 0.022494107 -0.21868646 0.14574803 0.016940132 -0.02837108 0.12576899
-0.04063574 -0.20108677 -0.08709037 0.16029605 -0.14551552 -0.17692138 -0.046365734 -0.06809236
0.1822953 0.17353722 0.08898094 0.20170751 0.18722966 -0.115413554 0.08910098 -0.0536791
0.21330939 -0.2015296 -0.07175656 0.0049715824 0.15509646 -0.046019405 0.107771486 -0.15767902
0.16335143 -0.16273656 -0.094672956 0.21999569 -0.18635795 0.041325524 -0.14398418 0.059920978
-0.16292475 0.017669646 -0.057648733 0.11510793 0.16388625 0.09636122 0.06000119 -0.07473597
-0.0056174775 -0.13865371 0.18270059 0.15520145 0.11121202 -0.1269758 0.16597655 -0.16678317
0.098726586 -0.020507405 0.090541884 -0.0051005497 0.16425376 0.08442152 0.08759863 -0.16070929
0.0066265096 0.13239364 0.12598932 0.20142746 -0.047539786 0.028420975 0.115482144 0.071214624
-0.11129341 0.1455122 -0.1698063 -0.075412475 0.010493943 0.07240307 0.015359476 -0.16667013
0.067858934 -0.11686665 0.1534753 -0.18523772 0.09333021 0.01359719 0.15929376 0.13039118
-0.17519613 -0.19906852 -0.1860084 0.08156946 0.067846805 -0.15591036 0.16905779 -0.07153838
-0.08405153 0.15569788 -0.14105044 -0.19284475 -0.121065386 0.18844742 -0.12245938 -0.15665491
-0.1906173 -0.0080702705 0.1363923 -0.07280577 -0.2375271 0.19344734 0.20128721 -0.16139603
-0.06490119 -0.08531936 -0.08978441 -0.086094014 0.05313155 -0.0048812083 -0.13713899 -0.03772136
-0.1644077 -0.054727633 0.114953265 0.16572729 0.13743255 0.19393179 0.036077842 0.089270614
-0.0067125605 -0.1212278 0.09283407 -0.09771204 -0.13601364 -0.16158493 0.09247758 -0.089344814
0.056195498 0.0075620627 -0.06494579 0.14748208 0.095933646 -0.07572544 -0.05962778 -0.046511978
-0.20382795 0.13369177 0.21594289 0.17690143 -0.007640529 0.12315139 -0.14399399 0.09920834
-0.108719334 -0.13122618 0.108754866 -0.10185053 -0.078588046 0.053815626 -0.054470975 -0.17682129
0.10821402 0.10048136 -0.027166918 0.12499512 -0.13916919 -0.07803817 -0.07656241 -0.02222424
-0.08423627 0.07728963 -0.064110845 -0.09161333 0.03940192 -0.19470757 0.027586251 0.07954979
0.040868487 -0.14117105 -0.18440713 0.20927395 0.06776273 0.16953777 -0.0806354 -0.12581526
-0.11680545 -0.07347257 0.06730342 -0.05324848 -0.03287433 0.045397364 -0.11743715 0.1623844

fc1.bias f4 [128]
00000000: 19d9 013e fbb7 033e 6b9e 483e efc1 3a3c
00000010: e4cd 353e 6f5b 05be b07b 5c3d add6 88bc
00000020: 6018 6f3d 1205 a23d 6351 dabd ee70 8a3d
00000030: be0c 2cbe ada8 0e3e cf14 403d e6bc be3b
00000040: 267c a9bd 3950 053d 5c37 0b3e 58dd 4cbe
00000050: a079 6abc 5647 833d 5020 2cbd 61a9 373e
00000060: e9c0 9a3d f2a4 ef3d 20bc c7bd bf24 763d
00000070: 3056 9d3d 3eb4 14bd d773 793d 78bd 8f3d
00000080: c55f e6bd 1d5f b83d d322 753d 11b9 24bd
00000090: c6be c1bd 53a8 b9bd f11e 3fbe ac3f a4bd
000000a0: bf7f fb3d 408c 0cbe 9dba ccbd 8e3a 423e
000000b0: 3c80 fc3c 548d 233e 4799 483e 20a2 0a3e
000000c0: 159e 59bd b725 31bd ad9f 09bd 2b92 4abb
000000d0: 0b39 1dbe 49f8 48be 596e 563d 824a cbbd
000000e0: 7113 983c 1659 60bd 707b a4bd 413d a5bd
000000f0: 5033 fdbd 0f54 373d eb40 bcbc 68f0 ebbd
00000100: 786b 2a3e 49cd 23be e786 0b3e d49b 42be
00000110: be87 3e3d bde4 033e 60c3 4f3e f290 d93d
00000120: 50bd afbd 6fca bb3c 53e3 abbd ffff bc3d
00000130: 9414 a43b 797a e5bb 3937 273e bbea 01be
00000140: bc8b 2fbe 29f0 1abe 6795 413e 0c12 033e
00000150: 0e33 023d 0ea7 48be 60c9 fa3c af64 cf3d
00000160: 4b8d f23d 9e6b 413e e05c dabd a84b 2dbe
00000170: 16a3 143e 18c0 4a3d 00eb f23b d291 43be
00000180: c7fd 763d 8c8e 27be 2d04 ecbd 4794 3a3e
00000190: c988 723c 1ca0 2abe 75a2 dfbd 5509 ffbd
000001a0: 937c 12bd 1384 2f3e ffbe dd3d c163 a6bc
000001b0: e6d3 413e be05 ea3d e3ca 123e 0c8a 533c
000001c0: 356a db3d 6d66 c3bd 6642 723d 97c0 8dbd
000001d0: a2d4 173e 78e9 26be bea1 02be b23e da3c
000001e0: 57be b13d b8ce ddbd 8a2d 713b 5366 86bd
000001f0: 788d 30be dad7 8f3d cb93 09be 7688 4dbd
0.12680472 0.12863152 0.19591682 0.011398776 0.17754322 -0.1302316 0.053828895 -0.016703928
0.058372855 0.07911123 -0.106600545 0.06759821 -0.16801736 0.13931532 0.046894845 0.0058208583
-0.082756326 0.03254721 0.13595337 -0.20006311 -0.014311224 0.064100906 -0.042023003 0.17935707
0.07556326 0.11701383 -0.09752679 0.060093638 0.076824546 -0.036304705 0.06090149 0.0701856
-0.11248735 0.090025164 0.059847664 -0.040215556 -0.09460215 -0.090653084 -0.18664147 -0.08019957
0.12280225 -0.13725376 -0.09996531 0.1896765 0.030822866 0.15971881 0.1958972 0.13538408
-0.053129274 -0.04324886 -0.033599544 -0.0030909877 -0.15353791 -0.19625963 0.05235133 -0.099263206
0.018563958 -0.05477246 -0.08031356 -0.08068324 -0.12363303 0.0447579 -0.022980174 -0.11520463
0.16642559 -0.15996279 0.1362568 -0.19004756 0.046516173 0.12880225 0.20289373 0.10623349
-0.0858103 0.022923676 -0.08392968 0.09228515 0.005007336 -0.0070031253 0.1632966 -0.12687199
-0.17143148 -0.15130676 0.18904649 0.12799853 0.03178697 -0.19594976 0.030613601 0.10126626
0.11843356 0.18888709 -0.10662246 -0.16923392 0.14515337 0.0494996 0.007413268 -0.19098595
0.060300615 -0.16362971 -0.11524234 0.18220626 0.01480312 -0.1666264 -0.10919658 -0.12452952
-0.035763334 0.17140226 0.10827445 -0.020311238 0.18928489 0.114268765 0.14335208 0.012911331
0.10713617 -0.095410205 0.059145354 -0.06921499 0.14827207 -0.16299999 -0.12757012 0.026641224
0.086788826 -0.10830444 0.0036800825 -0.065624855 -0.17241466 0.07023592 -0.13435285 -0.050178967

fc2.weight f4 [64, 128]
00000000: fb86 dd3c 905a 663d 23c6 7e3c 89f2 bcbc
00000010: c3bb 8f3c 3b24 52bd de15 1ebd 9229 37bd
00000020: 8684 4abc 65bf 4c3d 89aa 16bd 7f03 79bc
00000030: ff77 10bb 69d1 85bd 9e38 8ebc b320 aa3d
00000040: 1309 52bd 427f 4abd 47f2 2e3d 8d5c e3bd
00000050: 7b88 4f3d ea8a 643c 042a 26bc 5597 c5bb
00000060: b188 873b 2d96 633d 55ee a4bd 571b a6bd
00000070: 71cc 4d3c 4e0b 1c3d d307 103c 2f76 f0bb
00000080: 1e80 c2bd cb58 a9ba 1ed4 5d3d 0a76 fc3c
00000090: d356 85bc aa75 763d d2da f43b 1ce5 e6bd
000000a0: 398f 983c 4167 5b3c f8fa 94bd 8592 d73b
000000b0: 6982 acbb bcf6 90ba 6499 073c 5b9c 85bd
000000c0: decf e53c 58cc 9e3c 228f af3c 87f2 a43b
000000d0: 0a93 36bd e972 b6bd 6e2b ba3d 92e0 c93d
000000e0: 72c9 c1bd 8bce 4d3b 7dd2 7e3c a187 10bd
000000f0: c829 063d 468e 97bc 767c db3c 84d9 dcba
00000100: 46d4 6abd 3d66 543d c937 cbbc 1a33 efbc
00000110: f6a2 98ba 4505 52bd 598b 3f3d 32a4 883d
00000120: ff84 903d c6b1 80bd ced3 c0bc 75b1 953c
00000130: 96c6 30bd fb01 883d 548f 9abd 5b77 053d
00000140: 1b8c 243d 9cf8 70bd 1732 6f3c 7b20 38bd
00000150: 5b91 993d 6d13 62bd 28f4 5fbd 1f6f 873d
00000160: cedc 043d b506 61bd 9ff0 b23d b2b9 6a3c
00000170: fbf9 be3d 5ff2 493d ab65 52bd b76f 52bd
00000180: 712b 9b3d 6455 b6bd ac3e 8f3d d1bd 8c3d
00000190: 1762 2c3d 52fe b23c 89c6 08bd d79a 8cbd
000001a0: a32f a03d b341 773c 5e5b 04bc e35b 223c
000001b0: a62f 473d c462 433d 7732 893d f4e2 b1bd
000001c0: 420c b8bc 28a9 a43d 2d18 9bbd 9899 dbbc
000001d0: e0cc 183d a92a b7bc abb6 38bd af87 6d3c
000001e0: a9f2 aebc 4d94 37bd 431a ba3d 67af f4bb
000001f0: d3bb d1bd e638 ae3c bb3d 9fbd ad1c dfbc
00000200: d7f5 60bd ebdd b93d 6eb7 dbb9 605e 85bd
00000210: fee4 7e3d 4446 2cbc c536 773a d8f4 3b3d
00000220: e8e2 7ebb 49af 543d 8d8c 8bbc fd79 963d
00000230: 197b 54bd d5ca 403d fcb5 0c3d f5b3 8f3d
00000240: a141 cc3d 5af3 c13b 53a1 a1bd 9591 4bbd
00000250: b6cd 253d 7ac6 9dbd 2dd5 3d3d b2b4 91bc
00000260: 7bcc a33d d841 1f3d 947d 833d e7de 223d
00000270: 69b5 df3d fa9e 7ebc 61cd b3bd cd6c 0bbd
00000280: e6ee 013d 87a6 9c3d eaf3 82bd fe63 3bbd
00000290: e962 023c c4ee 8bbc 6326 65bd f7c6 9a3c
000002a0: be06 9c3d e8b2 8a3d cbcb 38bd 90bf ef3c
000002b0: 9ca3 b3bd 1376 afbc a4d5 d6bc d21b d83c
000002c0: 5d1f 283d 074b 963a 3010 323d 0e63 563d
000002d0: aefb c23d af5c 883c f3f3 6f3c c291 66bb
000002e0: b068 94bd 9276 b83c 0c72 50bd a975 363d
000002f0: 0413 d3bd 4a74 a4bd b568 2cbd a170 973d
00000300: 3c9c 3cbd 476a c43c c4eb 26bd 64eb 41bd
00000310: fb99 843b 641f 1f3d dc00 c23b 796a 8bbd
00000320: 9d68 69bd 423d b7bd f706 a23d 901b 303d
00000330: 69d8 3fbd d2e8 513d 1e7b adbc 429d e5bc
00000340: 16f2 7fbd 21c4 2fbd 3a9c 293d 30bc be3c
00000350: e04d a53d 27bd 863c 8a44 b8bd 5bc6 843d
00000360: 5424 2bbd 33a8 a83c 8f87 38bd 3158 9fbd
00000370: d8eb 403d e62c 31bd c460 773d 4e4f aa3d
00000380: 5f22 b93c 189b 4f3b e8ef afbd 566f afbc
00000390: 7a3c ef3c ec11 b93d 0739 a8bd a0fd bd3b
000003a0: b026 703d d85a b13d ed6b e73d 3538 773d
000003b0: 7936 a23d 31fe e1bd d0e4 c2bd 8348 883d
000003c0: 9471 eeba d5e7 6cbd 1799 413d f710 41bd
000003d0: 73dd 163d 671d bdbd cd57 e93b 43e8 fa3c
000003e0: f8de 9b3d 817e 093d b631 9dbd 3940 183d
000003f0: d53d 7b3d ce5a a93b 8c48 cdbc 4d8e af3d
0.027041903 0.05623871 0.015550169 -0.023064869 0.017545586 -0.051304083 -0.038595073 -0.04471738
-0.012360698 0.049987216 -0.03678373 -0.015198587 -0.002204418 -0.065340824 -0.017360982 0.08307018
-0.051278185 -0.04943777 0.042711522 -0.11101637 0.050667267 0.013949135 -0.010141853 -0.006030003
0.004136168 0.05556314 -0.08053271 -0.081106834 0.01256095 0.03809672 0.008790928 -0.0073383073
-0.09497093 -0.0012920139 0.05415737 0.030818004 -0.016276753 0.060170807 0.0074723745 -0.11274168
0.018622981 0.013391317 -0.07274431 0.006578746 -0.0052645695 -0.0011059861 0.008276317 -0.06523963
0.02805322 0.019384548 0.021430556 0.0050337943 -0.04457382 -0.08908636 0.09090315 0.098572865
-0.09462251 0.0031403627 0.015553114 -0.035285596 0.03275469 -0.018500458 0.026792746 -0.0016849493
-0.057331346 0.051855315 -0.024806874 -0.029199172 -0.0011645246 -0.051274557 0.04676375 0.06671943
0.07056617 -0.062839076 -0.023538496 0.018273095 -0.043158136 0.06641003 -0.07546869 0.03258453
0.040172677 -0.058830842 0.014599345 -0.04495285 0.074984275 -0.055194307 -0.054676205 0.066129915
0.03243714 -0.054938037 0.08737301 0.0143265 0.09325024 0.04930341 -0.05136649 -0.05137607
0.07576645 -0.08903006 0.069943756 0.06872142 0.042085733 0.021849785 -0.033392463 -0.06865471
0.07821586 0.0150913475 -0.008078424 0.009909603 0.048629425 0.047701612 0.066990785 -0.08685866
-0.022466782 0.080400765 -0.075729705 -0.026806638 0.03730476 -0.02235921 -0.04509608 0.0144976815
-0.021355944 -0.044819165 0.0908704 -0.0074671987 -0.10240903 0.021267366 -0.07775446 -0.027235353
-0.05492195 0.090755306 -0.000419076 -0.06512141 0.062230103 -0.0105147995 0.00094304635 0.045887798
-0.003889257 0.051924977 -0.017034793 0.07347486 -0.051875208 0.047068436 0.03435324 0.07016746
0.09973455 0.0059189023 -0.07892098 -0.049699385 0.040479384 -0.07703872 0.04634588 -0.017786358
0.07997986 0.038881153 0.064204365 0.039763357 0.10923273 -0.015540833 -0.08779407 -0.034039307
0.031721972 0.0764895 -0.06394179 -0.045749657 0.007958152 -0.017081626 -0.05594481 0.018893702
0.076184735 0.06772405 -0.045116227 0.029266149 -0.087714404 -0.021418607 -0.026224919 0.026380453
0.041045535 0.0011466452 0.04347247 0.05234056 0.0952066 0.016645757 0.014645564 -0.0035182093
-0.0724653 0.022517476 -0.050890014 0.044545803 -0.10306361 -0.08029993 -0.042092044 0.07394529
-0.046047434 0.023976458 -0.040752187 -0.047343627 0.004046676 0.038848296 0.0059205126 -0.068074174
-0.056984533 -0.08947231 0.07911485 0.042995036 -0.046837244 0.051247425 -0.02117687 -0.028029088
-0.06248673 -0.042911652 0.041408755 0.023283094 0.08071494 0.016447617 -0.08997448 0.06483146
-0.041782692 0.020588016 -0.045051154 -0.07780493 0.047099918 -0.04325571 0.060395017 0.083159074
0.022599397 0.0031678136 -0.0859068 -0.021415394 0.029203642 0.090366215 -0.08214002 0.0057980567
0.058630645 0.08659905 0.11299882 0.060356338 0.07920546 -0.11034811 -0.09516299 0.066544555
-0.0018191808 -0.05783828 0.04726514 -0.04713532 0.036832284 -0.09234124 0.0071210624 0.03062833
0.07610887 0.03356791 -0.07675497 0.037170622 0.061338264 0.0051682955 -0.025059007 0.085720636

fc2.bias f4 [64]
00000000: de8d d4bc 5449 7bbc 554e 4d3d c5e2 66bc
00000010: 93c3 613d be7b 29bd 81a0 0cbd 35c0 173d
00000020: 995c b03d f02d 42bd 5e9b d83c 4e9a 04bc
00000030: 9d31 76bd 41f9 483d c256 6f3c 2d1c 0f3c
00000040: 903b b8bc d1f3 bdbc be41 a23c 9821 0f3d
00000050: c54a f0bb 0720 c13c 528a 6f3c 104c c83c
00000060: bf03 993c c854 a6bd f5b9 fbbc 4e2a 45bd
00000070: 0527 82bd abd1 0a3d 5869 d83c 473a 11bd
00000080: 778d a1bd cd61 183d 12ce a8bc 5ce6 a93d
00000090: 4afa b23d 2180 49bc 5412 0e3d bf36 5d3c
000000a0: 62e5 85bd 2d24 fa3c ff4f 5e3c 6a5e 303d
000000b0: ab2d 733d 6774 aabd fb33 85bd ae9f ac3d
000000c0: 981c acbd 8742 803b c6eb 47bd 8736 173d
000000d0: b03a 5fbd 48aa 193d 3bd6 54bd 8631 4c3d
000000e0: 7963 4fbd 48a8 503d 979f 54bd 9019 813d
000000f0: 9b17 e63c 7320 493b 51a8 6f3d c581 a73c
-0.025946554 -0.015337307 0.05012353 -0.014092152 0.055118155 -0.041377775 -0.034332756 0.037048537
0.086114116 -0.04740709 0.026441272 -0.00809343 -0.06010591 0.049065832 0.014608087 0.008734745
-0.02248934 -0.02318755 0.019806739 0.034944147 -0.007333132 0.023574842 0.0146203805 0.024450332
0.018678544 -0.081216395 -0.03072832 -0.048136048 -0.06355099 0.03389136 0.02641742 -0.03545597
-0.078883104 0.037202645 -0.020606074 0.08295891 0.08739145 -0.012298615 0.034685448 0.013501822
-0.06537892 0.030534828 0.013568877 0.04305879 0.059369724 -0.08322983 -0.06504055 0.08428894
-0.08403891 0.0039141807 -0.048808835 0.036917236 -0.054499328 0.03751591 -0.05196212 0.049851917
-0.050631974 0.050941736 -0.05191001 0.06303704 0.028087428 0.0030689507 0.05851013 0.020447621

fc3.weight f4 [3, 64]
00000000: 950e d63d 1038 00be ae7f 1cbe 7a06 60bc
00000010: 13f9 2d3d 175d 1b3d 95b3 013c 3bb6 8bbd
00000020: a022 f63d 398b 99bd 82bd 01bd c5e5 633d
00000030: 1446 c5bd e6ed 49bd dc44 89bc 26c4 b5bb
00000040: f2dc d9bd 705d 1d3e 214b f2bd bc20 cd3c
00000050: b51f eabc 15c6 5e3d c769 be3d 1ebf 4dbd
00000060: f51a 2c3d 7b31 f93d 8e44 1f3e 7762 f23d
00000070: 7532 8e3d f47f b23d e088 093c b83f ccbd
00000080: 6485 483c dc1c c6bb 28fa 06be fe77 383c
00000090: bd94 29bd 48ae ac3d e829 bb3d fe13 fe3b
000000a0: 7c89 c83c 58fe 833c 252d 94bd d2f6 133e
000000b0: 6bf2 da3c 62f6 a23d 0346 023e 0fe6 bdbc
000000c0: 8604 5cbd ab6a 8d3c b8a5 bf3d aea4 993d
000000d0: ce5c f7bb bf03 45bb 1b8a e1bd 01b3 2fbc
000000e0: a67e bb3c 7d64 e93c b2e5 ec3d 88ce 75bc
000000f0: 7c90 14be f86e 5fbd 49e6 af3c 21ee b13d
00000100: fb9b e03c 22e2 d03d 0c3d e73d 3f34 0f3e
00000110: 0e66 4d3d d31d 413c 41c9 b93d 4c67 01b9
00000120: a8a8 c03c a993 4b3d b826 9b3d 466b 0bbe
00000130: 8cb5 cd3d 5636 f0bd 846c 01bd 48ff 393d
00000140: 3473 9cbd a2d7 25be 8918 f8bb f4ec 23be
00000150: a79f 70bd a834 fbbd bd0c bfbd 3ddd 463d
00000160: 17aa 023d 9c19 a63d 0068 bcb9 fb84 9c3c
00000170: b10f c4bd 0f4f a6bd 44e1 a4bc b3be f73d
00000180: 21be 7cbc 0838 bd3d c978 90bc fab0 9c3d
00000190: 2763 783d 43b2 f3bd 8389 16bd 7ece 433d
000001a0: 4fc9 f6bd 2569 af3d 872a 00be 237d 4fbb
000001b0: 09c9 7f3d 6675 c6bd 21f7 adbc 41c1 06be
000001c0: 83d6 c63d 57f0 053e e5c2 803d f565 b53d
000001d0: 38b8 8fbb cc2e d3bd d18b ebbd b183 b23d
000001e0: 4114 b03d 3ce9 66bd 085f 603d 5d06 e03d
000001f0: 6692 cbbd 21b8 05be cef0 e43d 3689 cb3d
00000200: 72f7 3e3d f655 0e3d a54f 503c fc22 803d
00000210: db41 ffbd 191b 4bbd fc91 0fbc c852 0a3e
00000220: 6ce1 833d 30b4 d6bd 05f0 b4bd d49b 1e3d
00000230: 58b3 793b 9eab 873d c18d f23d b57c 2dbd
00000240: 45e2 b6bd 9a3c 9cbc e31d 1e3d ba87 273d
00000250: 8985 0dbe 3f05 edbd 9946 fe3c 6cfe 333c
00000260: 1084 aab8 c0e0 d6bd 8c9a 213c a7b9 603d
00000270: dcdf dd3d 284d e9bd c197 c3bd 179c 823d
00000280: d323 7ebd 3854 d5bd ff46 b13d 56e0 c8bc
00000290: 21bb f7bd 8f9e 87bd bd0c 1cbd e696 b2bd
000002a0: 9c39 c23d 5b08 67bd 3586 0b3e ca5b fcbd
000002b0: 0e35 72bc d7e8 cfbc 8e91 a83a f8ba b13d
000002c0: d71c 05be e4a0 8c3d 8d29 edbd 389b 8dbd
000002d0: fc7c 93bd 3c18 c7bd 551f 94bd 352d e43d
000002e0: 40aa abbd f152 bd3d 7b7f e73b d5f0 afbd
000002f0: 3812 7bbd 6193 d53d ad91 87bd b1b5 d83c
0.10452 -0.12521386 -0.15283081 -0.013673419 0.042473864 0.037930574 0.007916351 -0.06821867
0.12018323 -0.07497258 -0.03167487 0.055639047 -0.09632507 -0.049299143 -0.016756468 -0.0055470644
-0.10637845 0.15367675 -0.11830736 0.025040023 -0.028579572 0.054388124 0.09297519 -0.05023109
0.042017896 0.12167641 0.15553495 0.11835187 0.06943218 0.08715811 0.00839445 -0.09973091
0.012238834 -0.006045921 -0.13181365 0.011259077 -0.041401614 0.08431679 0.09138852 0.007753848
0.02447962 0.016112491 -0.07235173 0.14449623 0.026726922 0.0795715 0.1272202 -0.02318099
-0.05371525 0.017262777 0.0935778 0.07502113 -0.007548905 -0.0030062047 -0.1101267 -0.01072383
0.02288754 0.0284903 0.115672484 -0.015002854 -0.14508241 -0.054549187 0.021472113 0.086879976
0.027418127 0.101993814 0.11290941 0.13984774 0.050146155 0.011786896 0.09071589 -0.0001234088
0.023517922 0.049701367 0.075757444 -0.1361514 0.10044393 -0.11729114 -0.03159763 0.04540947
-0.07639161 -0.16195539 -0.007571284 -0.16008359 -0.058746006 -0.12265903 -0.093286015 0.048550833
0.03190049 0.08110353 -0.0003593564 0.019106379 -0.095733054 -0.08120548 -0.020126946 0.1209692
-0.01542619 0.09239203 -0.01763572 0.07650943 0.060641434 -0.11899235 -0.036752235 0.04780435
-0.12050115 0.085649766 -0.12516223 -0.003166028 0.06244758 -0.09690361 -0.021236004 -0.13159658
0.097088836 0.13079964 0.06287173 0.088573374 -0.0043859743 -0.1031166 -0.11501277 0.087165244
0.08597613 -0.056374773 0.05477813 0.10938714 -0.09940033 -0.13058521 0.11178742 0.0993828
0.0466227 0.034749947 0.012714301 0.06256673 -0.12463733 -0.04958639 -0.008762833 0.13508141
0.0643948 -0.10483587 -0.088348426 0.038722828 0.0038101282 0.0662453 0.11843444 -0.042355258
-0.08929876 -0.019071866 0.03860272 0.040900923 -0.13820471 -0.11573266 0.031039523 0.010985952
-8.13083e-05 -0.104920864 0.009863507 0.054864552 0.108337134 -0.113916695 -0.09550429 0.06377428
-0.062045883 -0.10416454 0.086561196 -0.024521034 -0.12096239 -0.066220395 -0.038098086 -0.08720188
0.09483644 -0.056404453 0.13625415 -0.12322195 -0.014783157 -0.025379581 0.0012860761 0.086782396
-0.12999283 0.06866625 -0.11580191 -0.06914371 -0.07201573 -0.09721419 -0.072325386 0.11141435
-0.08382082 0.092443354 0.0070647574 -0.08590857 -0.06129667 0.10428501 -0.06619582 0.026453825

fc3.bias f4 [3]
00000000: 05ea 5f3c 3adb 583d 4084 5f39
0.013666634 0.052943446 0.00021316204
